…
Emissões médias: 0.0019106943448823847 kg CO₂
************************************************************************************************
O melhor modelo é o Modelo_6 com a maior média de acurácia de validação: 0.8370
************************************************************************************************
Tempo Médio de Treino: 729.8954437000001 segundos
Consumo Médio de Energia: nan W
----------------------------------------------------------------
        Layer (type)               Output Shape         Param #
================================================================
            Conv2d-1           [-1, 64, 32, 32]           1,792
       BatchNorm2d-2           [-1, 64, 32, 32]             128
              ReLU-3           [-1, 64, 32, 32]               0
            Conv2d-4           [-1, 64, 32, 32]          36,928
       BatchNorm2d-5           [-1, 64, 32, 32]             128
              ReLU-6           [-1, 64, 32, 32]               0
         MaxPool2d-7           [-1, 64, 16, 16]               0
            Conv2d-8          [-1, 128, 16, 16]          73,856
       BatchNorm2d-9          [-1, 128, 16, 16]             256
             ReLU-10          [-1, 128, 16, 16]               0
           Conv2d-11          [-1, 128, 16, 16]         147,584
      BatchNorm2d-12          [-1, 128, 16, 16]             256
             ReLU-13          [-1, 128, 16, 16]               0
        MaxPool2d-14            [-1, 128, 8, 8]               0
           Conv2d-15            [-1, 256, 8, 8]         295,168
      BatchNorm2d-16            [-1, 256, 8, 8]             512
             ReLU-17            [-1, 256, 8, 8]               0
           Conv2d-18            [-1, 256, 8, 8]         590,080
      BatchNorm2d-19            [-1, 256, 8, 8]             512
             ReLU-20            [-1, 256, 8, 8]               0
           Conv2d-21            [-1, 256, 8, 8]         590,080
      BatchNorm2d-22            [-1, 256, 8, 8]             512
             ReLU-23            [-1, 256, 8, 8]               0
        MaxPool2d-24            [-1, 256, 4, 4]               0
           Conv2d-25            [-1, 512, 4, 4]       1,180,160
      BatchNorm2d-26            [-1, 512, 4, 4]           1,024
             ReLU-27            [-1, 512, 4, 4]               0
           Conv2d-28            [-1, 512, 4, 4]       2,359,808
      BatchNorm2d-29            [-1, 512, 4, 4]           1,024
             ReLU-30            [-1, 512, 4, 4]               0
           Conv2d-31            [-1, 512, 4, 4]       2,359,808
      BatchNorm2d-32            [-1, 512, 4, 4]           1,024
             ReLU-33            [-1, 512, 4, 4]               0
        MaxPool2d-34            [-1, 512, 2, 2]               0
           Conv2d-35            [-1, 512, 2, 2]       2,359,808
      BatchNorm2d-36            [-1, 512, 2, 2]           1,024
             ReLU-37            [-1, 512, 2, 2]               0
           Conv2d-38            [-1, 512, 2, 2]       2,359,808
      BatchNorm2d-39            [-1, 512, 2, 2]           1,024
             ReLU-40            [-1, 512, 2, 2]               0
           Conv2d-41            [-1, 512, 2, 2]       2,359,808
      BatchNorm2d-42            [-1, 512, 2, 2]           1,024
             ReLU-43            [-1, 512, 2, 2]               0
        MaxPool2d-44            [-1, 512, 1, 1]               0
           Linear-45                 [-1, 4096]       2,101,248
             ReLU-46                 [-1, 4096]               0
          Dropout-47                 [-1, 4096]               0
           Linear-48                 [-1, 4096]      16,781,312
             ReLU-49                 [-1, 4096]               0
          Dropout-50                 [-1, 4096]               0
           Linear-51                   [-1, 10]          40,970
================================================================
Total params: 33,646,666
Trainable params: 33,646,666
Non-trainable params: 0
----------------------------------------------------------------
Input size (MB): 0.01
Forward/backward pass size (MB): 6.75
Params size (MB): 128.35
Estimated Total Size (MB): 135.12
----------------------------------------------------------------
