…
Emissões médias: 0.0002040727887288473 kg CO₂
************************************************************************************************
O melhor modelo é o Modelo_1 com a maior média de acurácia de validação: 0.9167
************************************************************************************************
Tempo Médio de Treino: 111.02640389999999 segundos
Consumo Médio de Energia: nan W
----------------------------------------------------------------
        Layer (type)               Output Shape         Param #
================================================================
            Conv2d-1           [-1, 32, 26, 26]             320
              ReLU-2           [-1, 32, 26, 26]               0
         MaxPool2d-3           [-1, 32, 13, 13]               0
            Conv2d-4           [-1, 64, 11, 11]          18,496
              ReLU-5           [-1, 64, 11, 11]               0
         MaxPool2d-6             [-1, 64, 5, 5]               0
            Linear-7                  [-1, 120]         192,120
              ReLU-8                  [-1, 120]               0
            Linear-9                   [-1, 84]          10,164
             ReLU-10                   [-1, 84]               0
           Linear-11                   [-1, 10]             850
================================================================
Total params: 221,950
Trainable params: 221,950
Non-trainable params: 0
----------------------------------------------------------------
Input size (MB): 0.00
Forward/backward pass size (MB): 0.50
Params size (MB): 0.85
Estimated Total Size (MB): 1.35
----------------------------------------------------------------
