…
Emissões médias: 0.00013654405797256848 kg CO₂
************************************************************************************************
O melhor modelo é o Modelo_2 com a maior média de acurácia de validação: 0.7628
************************************************************************************************
Tempo Médio de Treino: 39.0068039 segundos
Consumo Médio de Energia: nan W
----------------------------------------------------------------
        Layer (type)               Output Shape         Param #
================================================================
            Conv2d-1           [-1, 64, 28, 28]             640
              ReLU-2           [-1, 64, 28, 28]               0
         MaxPool2d-3           [-1, 64, 14, 14]               0
            Conv2d-4          [-1, 192, 14, 14]         110,784
              ReLU-5          [-1, 192, 14, 14]               0
         MaxPool2d-6            [-1, 192, 7, 7]               0
            Conv2d-7            [-1, 384, 7, 7]         663,936
              ReLU-8            [-1, 384, 7, 7]               0
            Conv2d-9            [-1, 256, 7, 7]         884,992
             ReLU-10            [-1, 256, 7, 7]               0
           Conv2d-11            [-1, 256, 7, 7]         590,080
             ReLU-12            [-1, 256, 7, 7]               0
        MaxPool2d-13            [-1, 256, 3, 3]               0
           Linear-14                 [-1, 4096]       9,441,280
             ReLU-15                 [-1, 4096]               0
          Dropout-16                 [-1, 4096]               0
           Linear-17                 [-1, 4096]      16,781,312
             ReLU-18                 [-1, 4096]               0
          Dropout-19                 [-1, 4096]               0
           Linear-20                   [-1, 10]          40,970
================================================================
Total params: 28,513,994
Trainable params: 28,513,994
Non-trainable params: 0
----------------------------------------------------------------
Input size (MB): 0.00
Forward/backward pass size (MB): 2.38
Params size (MB): 108.77
Estimated Total Size (MB): 111.16
----------------------------------------------------------------
