…
Emissões médias: 0.0014166519023489778 kg CO₂
************************************************************************************************
O melhor modelo é o Modelo_8 com a maior média de acurácia de validação: 0.8056
************************************************************************************************
Tempo Médio de Treino: 562.7303526999999 segundos
Consumo Médio de Energia: nan W
----------------------------------------------------------------
        Layer (type)               Output Shape         Param #
================================================================
            Conv2d-1           [-1, 64, 32, 32]           1,792
              ReLU-2           [-1, 64, 32, 32]               0
         MaxPool2d-3           [-1, 64, 16, 16]               0
            Conv2d-4          [-1, 192, 16, 16]         110,784
              ReLU-5          [-1, 192, 16, 16]               0
         MaxPool2d-6            [-1, 192, 8, 8]               0
            Conv2d-7            [-1, 384, 8, 8]         663,936
              ReLU-8            [-1, 384, 8, 8]               0
            Conv2d-9            [-1, 256, 8, 8]         884,992
             ReLU-10            [-1, 256, 8, 8]               0
           Conv2d-11            [-1, 256, 8, 8]         590,080
             ReLU-12            [-1, 256, 8, 8]               0
        MaxPool2d-13            [-1, 256, 4, 4]               0
           Linear-14                 [-1, 4096]      16,781,312
             ReLU-15                 [-1, 4096]               0
          Dropout-16                 [-1, 4096]               0
           Linear-17                 [-1, 4096]      16,781,312
             ReLU-18                 [-1, 4096]               0
          Dropout-19                 [-1, 4096]               0
           Linear-20                   [-1, 10]          40,970
================================================================
Total params: 35,855,178
Trainable params: 35,855,178
Non-trainable params: 0
----------------------------------------------------------------
Input size (MB): 0.01
Forward/backward pass size (MB): 3.06
Params size (MB): 136.78
Estimated Total Size (MB): 139.85
----------------------------------------------------------------
