…
Emissões médias: 0.0002539905352335057 kg CO₂
************************************************************************************************
O melhor modelo é o Modelo_1 com a maior média de acurácia de validação: 0.7163
************************************************************************************************
Tempo Médio de Treino: 133.1337701 segundos
Consumo Médio de Energia: nan W
----------------------------------------------------------------
        Layer (type)               Output Shape         Param #
================================================================
            Conv2d-1           [-1, 32, 30, 30]             896
              ReLU-2           [-1, 32, 30, 30]               0
         MaxPool2d-3           [-1, 32, 15, 15]               0
            Conv2d-4           [-1, 64, 13, 13]          18,496
              ReLU-5           [-1, 64, 13, 13]               0
         MaxPool2d-6             [-1, 64, 6, 6]               0
            Linear-7                  [-1, 120]         276,600
              ReLU-8                  [-1, 120]               0
            Linear-9                   [-1, 84]          10,164
             ReLU-10                   [-1, 84]               0
           Linear-11                   [-1, 10]             850
================================================================
Total params: 307,006
Trainable params: 307,006
Non-trainable params: 0
----------------------------------------------------------------
Input size (MB): 0.01
Forward/backward pass size (MB): 0.68
Params size (MB): 1.17
Estimated Total Size (MB): 1.86
----------------------------------------------------------------
